…
t32 (from tensorflow.python.ops.math_ops) is deprecated and will be removed in a future version.\r\nInstructions for updating:\r\nUse tf.cast instead.\r\n2019-08-27 13:41:53.477638: I tensorflow/stream_executor/dso_loader.cc:152] successfully opened CUDA library libcublas.so.10.0 locally\r\n - 2s - loss: 0.9179 - acc: 0.7319 - val_loss: 0.1438 - val_acc: 0.9626\r\n_________________________________________________________________\r\nLayer (type)                 Output Shape              Param #\r\n=================================================================\r\nclf_input (InputLayer)       (None, 28, 28, 1)         0\r\n_________________________________________________________________\r\nclf/c1 (Conv2D)              (None, 26, 26, 32)        320\r\n_________________________________________________________________\r\nclf/p1 (MaxPooling2D)        (None, 13, 13, 32)        0\r\n_________________________________________________________________\r\nclf/c3 (Conv2D)              (None, 11, 11, 64)        18496\r\n_________________________________________________________________\r\nclf/p2 (MaxPooling2D)        (None, 5, 5, 64)          0\r\n_________________________________________________________________\r\nclf/f2 (Flatten)             (None, 1600)              0\r\n_________________________________________________________________\r\nclf/d1 (Dense)               (None, 100)               160100\r\n_________________________________________________________________\r\nclf/d2 (Dense)               (None, 10)                1010\r\n_________________________________________________________________\r\nclf/a2 (Activation)          (None, 10)                0\r\n=================================================================\r\nTotal params: 179,926\r\nTrainable params: 179,926\r\nNon-trainable params: 0\r\n_________________________________________________________________\r\n/home/ecchen/opt/miniconda/envs/tf/lib/python3.6/site-packages/cleverhans/attacks_tf.py:27: UserWarning: attacks_tf is deprecated and will be removed on 2019-07-18 or after. Cod
…
cting new graph for attack ProjectedGradientDescent\r\nWARNING:tensorflow:From /home/ecchen/opt/miniconda/envs/tf/lib/python3.6/site-packages/cleverhans/attacks/projected_gradient_descent.py:95: to_float (from tensorflow.python.ops.math_ops) is deprecated and will be removed in a future version.\r\nInstructions for updating:\r\nUse tf.cast instead.\r\nacc:96.99\r\n_________________________________________________________________\r\nLayer (type)                 Output Shape              Param #\r\n=================================================================\r\nclf_input (InputLayer)       (None, 28, 28, 1)         0\r\n_________________________________________________________________\r\nclf/c1 (Conv2D)              (None, 26, 26, 32)        320\r\n_________________________________________________________________\r\nclf/p1 (MaxPooling2D)        (None, 13, 13, 32)        0\r\n_________________________________________________________________\r\nclf/c3 (Conv2D)              (None, 11, 11, 64)        18496\r\n_________________________________________________________________\r\nclf/p2 (MaxPooling2D)        (None, 5, 5, 64)          0\r\n_________________________________________________________________\r\nclf/f2 (Flatten)             (None, 1600)              0\r\n_________________________________________________________________\r\nclf/d1 (Dense)               (None, 100)               160100\r\n_________________________________________________________________\r\nclf/d2 (Dense)               (None, 10)                1010\r\n=================================================================\r\nTotal params: 179,926\r\nTrainable params: 179,926\r\nNon-trainable params: 0\r\n_________________________________________________________________\r\nacc[clean]: 99.070 %\r\n[INFO 2019-08-27 13:49:33,001 cleverhans] Constructing new graph for attack CarliniWagnerL2\r\n/home/ecchen/opt/miniconda/envs/tf/lib/python3.6/site-pack
…
